andrew/dl/lesson4/week1/net_params.pkl (torch, 9695 bytes, 6 tensors)

conv1.0.weight f4 [8, 3, 4, 4]
-0.122836426 0.053749878 -0.18179065 0.07872144 -0.036259692 0.00800141 -0.04551873 -0.05719394
0.096004896 -0.09801022 0.041814074 -0.029017845 -0.14291248 0.030971432 -0.2184349 0.008300467
-0.08083977 -0.030760247 -0.089949705 -0.03037561 -0.092538156 -0.010268125 0.018628199 -0.23654516
0.12657247 -0.23498146 -0.16676463 -0.013041028 0.13463181 -0.027458545 -0.18458699 -0.04971918
-0.15070015 0.018749002 -0.05582376 -0.045953978 -0.17612495 0.014034349 0.11088588 -0.19258733
0.029081173 -0.16498685 -0.11220068 0.099509746 -0.20521401 -0.120250486 0.007075107 0.023602191
0.46458742 0.8244558 1.0930505 0.7535353 -0.012434184 0.19823259 0.5286721 0.64527994
-0.6435545 -0.55951226 -0.37744454 0.06404106 -0.32024688 -0.79525816 -0.41781893 0.028522918
-0.055151768 0.62226564 0.7258546 0.3583389 -0.17530832 0.16500758 0.37360087 0.26840678
-0.80496776 -0.63980776 -0.27411237 -0.2933386 -0.6148434 -0.74570274 -0.32725576 -0.28518918
-0.2057951 0.04681347 0.062001865 -0.00987778 -0.6361814 0.0071583153 0.2845932 -0.16086395
-0.74090594 -0.8605212 -0.48621723 -0.61558235 -1.0433673 -0.9115819 -0.78390104 -0.4962762
-0.21672851 -0.16524225 -0.212734 -0.08044454 -0.023235885 -0.18460286 -0.09993485 0.07567804
-0.0503951 -0.0046994053 -0.118062705 -0.08954977 -0.23714904 0.13700837 -0.017260384 0.04772228
0.06592901 0.10162569 -0.18560573 -0.009218926 -0.21235758 0.025307028 -0.133436 0.030353298
-0.20870614 0.053445376 0.08766272 0.05887232 -0.23725067 0.07402192 -0.16352218 -0.21701607
0.08823621 -0.025471533 -0.12130478 -0.2213455 -0.0027288222 -0.12322514 -0.1854167 -0.06632259
-0.22851785 0.046361983 -0.16802661 -0.10741473 -0.261807 -0.0669761 -0.104457006 0.05615965
-0.0902051 0.06266732 0.098471195 -0.023537643 -0.11506214 -0.21455438 -0.19347233 -0.12351127
-0.17063268 0.033599857 -0.12249681 -0.06783773 -0.048102837 -0.22391857 0.09303593 -0.13118702
-0.20035443 -0.06517421 -0.2259016 -0.038376544 -0.17175959 -0.103572026 -0.11932464 0.07208766
0.08867969 0.11859806 -0.04272836 0.05642653 -0.20535558 -0.18847798 0.03908598 -0.01967628
-0.00038814024 0.043210518 0.053345192 0.025663363 -0.12073426 -0.12159934 -0.026191406 0.09079385
-0.06712353 -0.11919612 0.039224084 0.061548468 -0.055655938 -0.11858668 -0.24359903 -0.048233066
0.046411637 -0.17369588 -0.214941 -0.3010368 0.11599129 0.11486621 0.124474145 0.10650723
-0.047796316 0.025144944 0.050869472 -0.1073896 -0.13442802 0.098131396 -0.07623674 0.011829771
-0.07938894 -0.12377207 -0.10660688 -0.11777436 0.0824489 0.06269874 -0.07995905 0.12506586
-0.12564479 -0.044045784 -0.17341837 -0.026541488 0.14004852 -0.20855412 -0.013238874 -0.22602658
-0.02105684 -0.11527031 -0.11724796 -0.25030118 0.019437844 -0.23387912 -0.018635724 -0.12993094
-0.13888651 0.09815234 -0.039928667 -0.18102194 -0.13421461 -0.14079058 -0.16851941 -0.035758812
0.5537416 0.2275036 0.12220915 0.27100345 0.6322059 0.15694416 -0.3777656 -0.44909897
0.5910058 0.1102823 -0.2834587 -0.7997683 0.0037144742 -0.19322963 -0.1591322 -0.68661153
00000000: aa91 fbbd d528 5c3d 5427 3abe b538 a13d
00000010: 0b85 14bd 5918 033c d971 3abd 3144 6abd
00000020: 379e c43d 95b9 c8bd 3c45 2b3d d5b6 edbc
00000030: a657 12be cdb7 fd3c 66ad 5fbe affe 073c
00000040: 528f a5bd eafc fbbc 8d37 b8bd 45d6 f8bc
00000050: a584 bdbd a33b 28bc 2a9a 983c e538 72be
00000060: 379c 013e fb9e 70be 59c4 2abe 09aa 55bc
00000070: ecdc 093e bef0 e0bc 5f04 3dbe 57a6 4bbd
00000080: 2451 1abe 8297 993c 74a7 64bd 3d3a 3cbd
00000090: 195a 34be 53f0 653c 2318 e33d 9d35 45be
000000a0: a43b ee3c 50f2 28be 78c9 e5bd c4cb cb3d
000000b0: 9f23 52be e345 f6bd 4dd6 e73b 6259 c13c
000000c0: 67de ed3e 890f 533f 14e9 8b3f b0e7 403f
000000d0: bfb8 4bbc 7cfd 4a3e 0e57 073f 1131 253f
000000e0: fdbf 24bf 323c 0fbf 6940 c1be f627 833d
000000f0: 66f7 a3be 0a96 4bbf 5dec d5be e5a8 e93c
00000100: d2e6 61bd cd4c 1f3f 9bd1 393f 3278 b73e
00000110: 0684 33be bff7 283e 9d48 bf3e 9d6c 893e
00000120: 5e12 4ebf 71ca 23bf 7558 8cbe 7a30 96be
00000130: 6166 1dbf 60e6 3ebf 118e a7be 5104 92be
00000140: f3bb 52be 7bbf 3f3d abf5 7d3d 6ad6 21bc
00000150: c9dc 22bf 4d90 ea3b 33b6 913e 85b9 24be
00000160: 03ac 3dbf 1e4b 5cbf 77f1 f8be ce96 1dbf
00000170: 0f8d 85bf 6e5d 69bf bdad 48bf ea17 febe
00000180: 14ee 5dbe 4435 29be f1d6 59be 1bc0 a4bd
00000190: 2f59 bebc 8808 3dbe a5aa ccbd 17fd 9a3d
000001a0: 186b 4ebd 78fd 99bb dcca f1bd df65 b7bd
000001b0: 33d7 72be ec4b 0c3e a665 8dbc 7078 433d
000001c0: ca05 873d 2121 d03d 6e0f 3ebe fa0a 17bc
000001d0: 4474 59be af50 cf3c 72a3 08be 7ba7 f83c
000001e0: 10b7 55be 8ae9 5a3d 8388 b33d 1a24 713d
000001f0: d7f1 72be ce98 973d 5c72 27be 7639 5ebe
00000200: 30b5 b43d ada9 d0bc a46e f8bd 65a8 62be
00000210: 0ad6 32bb 765d fcbd e0dd 3dbe 23d4 87bd
00000220: 9500 6abe 10e6 3d3d 2b0f 2cbe 41fc dbbd
00000230: 910b 86be c42a 89bd 8eed d5bd a907 663d
00000240: 74bd b8bd b957 803d 44ab c93d 04d2 c0bc
00000250: b3a5 ebbd 25b4 5bbe 9c1d 46be 7af3 fcbd
00000260: 55ba 2ebe 01a0 093d 9cdf fabd 82ee 8abd
00000270: 7b07 45bd e94a 65be 9f89 be3d e455 06be
00000280: b629 4dbe 0e7a 85bd c052 67be b930 1dbd
00000290: bfe1 2fbe 921d d4bd 7a60 f4bd b2a2 933d
000002a0: b39d b53d 8ae3 f23d ef03 2fbd 811f 673d
000002b0: bc48 52be 5f00 41be 9f18 203d 2630 a1bc
000002c0: 4d7f cbb9 83fd 303d 7d80 5a3d f93b d23c
000002d0: 8643 f7bd 1309 f9bd 5c8f d6bc 20f2 b93d
000002e0: 1078 89bd 181d f4bd 6fa9 203d 3f1a 7c3d
000002f0: 7bf7 63bd 93dd f2bd 0672 79be 0990 45bd
00000300: 211a 3e3d 55dd 31be 7e19 5cbe 7f21 9abe
00000310: d78c ed3d fa3e eb3d 4dec fe3d 7620 da3d
00000320: 12c6 43bd c5fc cd3c 825c 503d 14ef dbbd
00000330: 80a7 09be 1df9 c83d 0222 9cbd a8d1 413c
00000340: ab96 a2bd 367c fdbd b554 dabd af33 f1bd
00000350: f8da a83d 3268 803d 92c1 a3bd 4411 003e
00000360: 07a9 00be 5a69 34bd 9694 31be 896d d9bc
00000370: e168 0f3e 368f 55be dde7 58bc 8373 67be
00000380: 657f acbc d712 ecbd b31f f0bd 7a27 80be
00000390: 1d3c 9f3c 027e 6fbe f2a9 98bc 9e0c 05be
000003a0: 4438 0ebe 1804 c93d 3e8c 23bd d15d 39be
000003b0: 8e6f 09be 682b 10be 5a90 2cbe d577 12bd
000003c0: 02c2 0d3f b4f6 683e ca48 fa3d f7c0 8a3e
000003d0: 3fd8 213f f8b5 203e 7e6a c1be 4df0 e5be
000003e0: 284c 173f b0db e13d 8021 91be 9ebd 4cbf
000003f0: 896e 733b fddd 45be 8df3 22be c6c5 2fbf

conv1.0.bias f4 [8]
-0.09611108 1.4868708 -0.026467001 -0.052195296 -0.059274904 0.2030467 -0.056643363 -0.24452391
00000000: e3d5 c4bd c851 be3f 53d1 d8bc bcca 55bd
00000010: 3eca 72bd 79eb 4f3e df02 68bd 7a64 7abe

conv2.0.weight f4 [16, 8, 2, 2]
-0.007883615 -0.03142041 -0.10155114 0.13235828 0.75932825 0.9994724 -0.039910708 0.36388046
0.18504034 0.23145214 0.004441435 -0.21888515 -0.07839803 -0.019975215 -0.11761928 0.0015382415
0.0052780607 -0.018190255 -0.13467173 -0.07773972 -0.83408886 -1.0499892 0.875563 1.1117302
0.13509578 -0.03179367 -0.1599404 -0.09539799 -0.08110353 -0.49454036 0.19400254 -0.61093545
-0.2422843 -0.2154971 0.1415634 0.12823573 1.4653304 0.7219201 0.5176447 0.90205294
0.12094923 -0.19934918 -0.071288824 0.13737406 -0.23290834 0.20013127 -0.21803284 -0.12651664
-0.08183271 0.023020644 0.018877417 -0.203222 -0.5681757 0.40834674 0.4982489 -1.2766833
0.19276796 -0.14631315 -0.18717942 0.1935063 -0.54597485 0.86806417 -0.5837346 -1.1795313
-0.25552356 -0.18958102 0.024196092 0.19394788 0.8907133 -0.29138696 -0.46923494 -2.4013557
0.23423576 0.09787052 -0.24610302 -0.21904501 0.10148193 0.06720535 0.10723685 -0.070474334
0.0046537444 0.13595925 -0.05649722 -0.11841104 0.19994693 -1.8903203 -0.8517773 -0.4960655
-0.23226295 -0.047701735 -0.014705322 0.19074155 1.3161882 -0.13697407 -0.6999204 -0.6778011
-0.059862286 -0.22219525 0.03166573 0.17254844 0.27803224 -1.1691784 0.5628508 2.009687
0.041780856 -0.19549906 0.028536294 -0.03197864 -0.0073314277 -0.050155923 -0.17396094 0.14297776
-0.21443847 0.041376773 0.1997343 -0.13717136 -0.023812996 -0.5624199 -0.20514038 0.23590818
-0.06734349 -0.013310223 -0.0155134 0.13654757 0.6258492 -0.4691996 0.10395621 0.75220174
0.1754044 -0.31580472 -0.07071505 0.06276994 -0.032285664 -0.08173791 -0.18910697 -0.31337953
-0.15078428 0.2598418 -0.21772459 -0.07310598 0.06598681 0.07743331 -0.27229777 -0.004484007
-0.023727585 0.1754901 -0.062912606 0.052119102 -0.10833286 0.025314176 -0.054266796 -0.12278422
-0.008522939 -0.18637808 0.008464891 0.11972941 -0.2424488 -0.23047616 0.01908925 0.018054418
-0.06388539 0.2240651 0.13214518 -0.055685066 -0.79188424 -1.7849853 -0.5138726 0.2752636
-0.12251643 0.10308579 0.2037698 -0.16895062 0.060924876 0.2597968 0.17454535 -0.05047319
-0.011714529 -0.24581182 0.10590077 0.28974912 0.9599433 -0.9824127 0.7959859 -1.6547313
-0.020662865 0.058141604 -0.09227219 0.15417899 0.454775 -0.7959951 0.0107160695 -1.297637
0.0066842646 0.0786632 0.21296106 -0.22762927 -0.29563683 0.52803886 -0.5457572 1.0960463
0.14172089 0.09244727 0.017619886 0.2690288 0.116045035 -0.108287126 -0.11051335 -0.14500579
-0.044928335 0.0060206745 0.15745562 -0.19355744 0.22280642 0.124914356 -0.35742038 -0.40898913
0.19148879 -0.15633355 -0.22976343 0.056990094 0.96886307 -0.22991918 0.97692305 0.7685379
-0.27160633 -0.019330667 -0.084543966 0.076605156 1.5445107 2.3482525 1.669248 -0.5911084
-0.28069255 0.009556141 0.08532088 -0.20912302 0.24278347 -0.036576178 -0.18177803 0.14972185
0.25916302 0.029032758 -0.07127235 0.012884229 -0.11093532 0.29600367 -0.042207155 0.21675888
-0.14424653 0.23671728 -0.15164891 -0.0957514 0.071525484 -0.064775586 0.53602284 0.7213002
00000000: 472a 01bc b0b2 00bd 0bfa cfbd ee88 073e
00000010: 5663 423f 6cdd 7f3f 6979 23bd 8a4e ba3e
00000020: 377b 3d3e ca01 6d3e 7589 913b 6e23 60be
00000030: 258f a0bd 10a3 a3bc 61e2 f0bd d29e c93a
00000040: 95f3 ac3b bb03 95bc 63e7 09be 0136 9fbd
00000050: d986 55bf 0c66 86bf e624 603f 2d4d 8e3f
00000060: 8c56 0a3e 143a 02bd 6bc7 23be 0560 c3bd
00000070: 9c19 a6bd 6534 fdbe 9aa8 463e 4466 1cbf
00000080: 6019 78be 46ab 5cbe fff5 103e 3a50 033e
00000090: f28f bb3f c1cf 383f 5d84 043f f1ec 663f
000000a0: 3bb4 f73d 3122 4cbe e0ff 91bd c9ab 0c3e
000000b0: 867f 6ebe 36ef 4c3e 0044 5fbe 948d 01be
000000c0: e897 a7bd ca95 bc3c d0a4 9a3c 6e19 50be
000000d0: f673 11bf d312 d13e 7b1a ff3e 5c6a a3bf
000000e0: f764 453e 1dd3 15be f6ab 3fbe 8426 463e
000000f0: 02c5 0bbf 7439 5e3f a16f 15bf e2fa 96bf
00000100: fcd3 82be 8721 42be e236 c63c 469a 463e
00000110: c905 643f ac30 95be 903f f0be d0af 19c0
00000120: 80db 6f3e 5770 c83d 6e02 7cbe 564d 60be
00000130: c2d5 cf3d f5a2 893d fe9e db3d d954 90bd
00000140: 707e 983b e738 0b3e a169 67bd 7d81 f2bd
00000150: e3be 4c3e 04f6 f1bf 140e 5abf 4cfc fdbe
00000160: 57d6 6dbe e562 43bd 97ee 70bc c151 433e
00000170: db78 a83f ee42 0cbe fc2d 33bf 5f84 2dbf
00000180: 2832 75bd 2787 63be edb3 013d 8ab0 303e
00000190: 3e5a 8e3e a3a7 95bf fd16 103f b69e 0040
000001a0: 6722 2b3d e830 48be f2c4 e93c 09fc 02bd
000001b0: 793c f0bb 4c70 4dbd d122 32be c368 123e
000001c0: c295 5bbe b17a 293d 2687 4c3e a676 0cbe
000001d0: 7913 c3bc c0fa 0fbf 5210 52be ea91 713e
000001e0: 62eb 89bd 1f13 5abc ea2b 7ebc 20d3 0b3e
000001f0: a737 203f ee3a f0be fee6 d43d 4b90 403f
00000200: 369d 333e 28b1 a1be 0dd3 90bd 878d 803d
00000210: f93d 04bd 3566 a7bd 42a5 41be 4873 a0be
00000220: 3267 1abe fc09 853e 32f3 5ebe 97b8 95bd
00000230: 1824 873d 5b95 9e3d 9d6a 8bbe 94ee 92bb
00000240: 5a60 c2bc adb3 333e 53d8 80bd d77a 553d
00000250: 9edd ddbd ad5f cf3c dc46 5ebd 4b76 fbbd
00000260: cca3 0bbc e5d9 3ebe 54b0 0a3c b134 f53d
00000270: 8044 78be f101 6cbe 0f61 9c3c dce6 933c
00000280: 58d6 82bd 5271 653e 1151 073e 0616 64bd
00000290: edb8 4abf 667a e4bf 288d 03bf 5aef 8c3e
000002a0: e5e9 fabd a51e d33d 08a9 503e 6401 2dbe
000002b0: 5d8c 793d 1604 853e 04bc 323e fabc 4ebd
000002c0: 4cee 3fbc 18b6 7bbe 81e2 d83d ff59 943e
000002d0: d8be 753f 667f 7bbf bbc5 4b3f 3cce d3bf
000002e0: 2b45 a9bc e425 6e3d 34f9 bcbd 19e1 1d3e
000002f0: 45d8 e83e 56c6 4bbf 7492 2f3c f818 a6bf
00000300: ad07 db3b 2c1a a13d 7712 5a3e a617 69be
00000310: b65d 97be 8e2d 073f beb6 0bbf 3f4b 8c3f
00000320: 481f 113e ff54 bd3d 9457 903c 25be 893e
00000330: 05a9 ed3d a4c5 ddbd d354 e2bd 667c 14be
00000340: c606 38bd 1449 c53b 0c3c 213e ec33 46be
00000350: 5e27 643e 19d3 ff3d ceff b6be 0667 d1be
00000360: a315 443e e715 20be 1b47 6bbe 726e 693d
00000370: 6907 783f ef6f 6bbe a117 7a3f e6be 443f
00000380: fc0f 8bbe 595b 9ebc 6325 adbd 2ae3 9c3d
00000390: 87b2 c53f c549 1640 eba9 d53f e152 17bf
000003a0: efb6 8fbe 5c91 1c3c b7bc ae3d 5824 56be
000003b0: 3b9c 783e e7d0 15bd 0524 3abe af50 193e
000003c0: 04b1 843e 1bd6 ed3c 3df7 91bd 6018 533c
000003d0: 0f32 e3bd cb8d 973e 69e1 2cbd 0af6 5d3e
000003e0: 5db5 13be 0466 723e da49 1bbe 4f19 c4bd
000003f0: f47b 923d 10a9 84bd cb38 093f 21a7 383f

conv2.0.bias f4 [16]
-0.5994831 -0.29700392 0.04106262 -0.43015945 -0.108518034 0.5541928 -0.3488281 -0.3703313
-0.098842405 -0.02997135 2.1894598 0.054598775 -0.4486294 -0.27550486 -0.33726692 -0.9617529
00000000: b977 19bf e610 98be 4731 283d dc3d dcbe
00000010: b43e debd 94df 0d3f 9999 b2be 109c bdbe
00000020: e36d cabd 7a86 f5bc 1c20 0c40 f7a2 5f3d
00000030: c1b2 e5be f90e 8dbe 40ae acbe 7035 76bf

fullconnect.0.weight f4 [6, 144]
0.61926585 0.011185255 0.18027283 -1.5389041 0.4134222 0.35801673 1.0141181 -0.6760645
-0.23971997 0.3464516 0.59237224 0.028688395 -0.75945 0.22862554 0.08176462 -0.40266782
0.8007961 -0.8208114 0.015238152 0.13437922 -0.05272895 -0.28903693 2.2167962 0.096602395
-0.18465199 -0.78557307 0.6979477 -0.65675205 -0.055274777 0.08985379 -0.79538894 0.5834931
-0.5950803 -0.41227055 -0.5585863 0.6824804 -0.055499285 0.06962136 -0.20176722 -0.051588707
0.09093199 -0.048336808 -0.08520119 -0.13542607 0.06904161 0.33289835 -1.394636 0.16254678
0.292057 -1.3789992 -1.4563395 1.6799502 0.1561776 0.3439737 0.37490258 -0.7440899
-0.865281 0.21158865 -0.39475754 -0.51893777 0.11269495 -0.45995504 1.2123344 0.42703646
-0.6591531 0.22757523 -0.7998795 0.71707755 0.4968258 0.10138469 -1.2201767 -0.34326896
0.10056068 -0.19250244 0.04971394 -0.24721587 -0.041148376 -0.23579468 0.14805579 -0.22948042
-0.15326841 0.68581057 -0.5496999 0.057802692 0.7456022 -0.6309146 -0.46489143 0.4561178
0.19364467 -0.8021207 0.25783625 0.3499859 0.47126636 0.8373669 -1.02022 0.811368
0.48988992 0.63525033 1.276917 0.58495134 -0.69283915 -0.6732669 0.21469705 -0.33858138
0.72784394 0.15318345 0.71454394 0.044171344 0.7200195 -0.4601265 0.2474541 0.50189835
-0.8756717 -0.56075954 -0.1725616 0.28174457 0.5107099 -0.1295322 -0.68195397 0.8241655
-0.1105713 1.0766201 -0.15102342 0.11974366 0.67089254 -0.88165647 0.21567127 0.10162157
-0.1954605 -0.94942397 0.75162745 0.3765612 -0.6167673 -0.3117864 0.09482994 0.40505096
-0.8221652 -0.46959296 0.119541295 -0.47111836 0.42295083 0.54407066 -1.0122653 0.043761924
-0.09794074 0.041962005 -0.01632898 -0.25435084 -0.09281165 0.15336728 0.3809507 -0.58842725
-0.19126631 0.34324825 0.3368764 -0.2733613 0.042727955 0.46905178 -0.52642053 -0.9411857
0.27271366 0.7436913 -0.108514 0.2072574 0.22171278 2.708224 -0.18213588 -0.19491012
1.6402491 -0.06818153 -0.3663424 0.35307294 0.03677925 0.21975237 0.11361495 0.6556948
-0.523364 -0.43692395 -1.0639226 -0.04681019 -0.09652653 -0.13603768 0.24170661 0.08623089
0.15244891 -0.03254832 0.082639396 -0.03940151 -0.16981329 -0.92770094 0.7246545 -0.031486254
0.35345283 0.88373923 0.7284804 -2.3647397 -0.93400735 -1.1152653 0.40084058 0.4955546
0.024027767 0.23471501 -0.09576025 -0.123717606 0.046717055 -0.17605634 -0.96587956 0.37950906
-0.8089715 -0.5853607 0.6719761 0.14091952 0.06716291 -0.4957556 0.29794234 0.105581716
-0.14878747 0.22158866 -0.027122498 -0.033179406 0.046240408 0.12904592 0.21294826 -0.14147589
0.201894 0.24491157 0.3166716 0.20626934 0.32713974 -0.039036315 0.5556258 -0.3030318
0.8213324 0.5852978 -0.5421139 0.15993261 0.16646093 -0.60841805 2.725371 0.20141406
-0.05004737 -0.54941785 0.38991714 -0.06502459 0.28564018 0.15250015 -1.1844711 -1.1345989
-0.6170019 0.41033703 0.06453047 0.68922204 0.16796386 -0.68185204 -0.41481662 -0.32464728
00000000: 3588 1e3f 5c42 373c 7199 383e cffa c4bf
00000010: 13ac d33e f84d b73e 9fce 813f 9012 2dbf
00000020: 2779 75be 1b62 b13e b5a5 173f ed03 eb3c
00000030: 516b 42bf d01c 6a3e 3674 a73d 7a2a cebe
00000040: f900 4d3f b220 52bf 71a9 793c b59a 093e
00000050: 50fa 57bd a6fc 93be fddf 0d40 7ad7 c53d
00000060: 6915 3dbe 511b 49bf b3ac 323f e720 28bf
00000070: ce67 62bd 4405 b83d 9c9e 4bbf ce5f 153f
00000080: 2f57 18bf 2015 d3be 83ff 0ebf 09b7 2e3f
00000090: 3853 63bd a595 8e3d 119c 4ebe ae4e 53bd
000000a0: 8d3a ba3d d1fc 45bd f67d aebd 22ad 0abe
000000b0: b065 8d3d a771 aa3e 6f83 b2bf aa72 263e
000000c0: 7f88 953e 0c83 b0bf 5569 babf 9c08 d73f
000000d0: 05ed 1f3e 521d b03e 3bf3 bf3e ad7c 3ebf
000000e0: 0e83 5dbf b2aa 583e a91d cabe 1bd9 04bf
000000f0: 9ccc e63d 3a7f ebbe c62d 9b3f 86a4 da3e
00000100: 42be 28bf 7b09 693e e7c4 4cbf 6592 373f
00000110: f45f fe3e c7a2 cf3d c02e 9cbf f3c0 afbe
00000120: c2f2 cd3d 5c1f 45be d8a0 4b3d 2826 7dbe
00000130: 338b 28bd 2974 71be f09b 173e eafc 6abe
00000140: 65f2 1cbe 4891 2f3f 22b9 0cbf 84c2 6c3d
00000150: c9df 3e3f 9f83 21bf 4006 eebe 4688 e93e
00000160: ca4a 463e c857 4dbf 1d03 843e 5a31 b33e
00000170: d349 f13e ad5d 563f 9296 82bf d0b5 4f3f
00000180: dad2 fa3e c49f 223f 0472 a33f 5fbf 153f
00000190: e85d 31bf 385b 2cbf 8bd9 5b3e 8a5a adbe
000001a0: fb53 3a3f 1fdc 1c3e 5aec 363f 03ed 343d
000001b0: 3353 383f b395 ebbe 9c64 7d3e 697c 003f
000001c0: 052c 60bf f08d 0fbf fdb3 30be d340 903e
000001d0: e2bd 023f 17a4 04be 8994 2ebf 83fc 523f
000001e0: 3573 e2bd b0ce 893f e2a5 1abe 2a3c f53d
000001f0: 9dbf 2b3f 3db4 61bf eed8 5c3e f81e d03d
00000200: cc26 48be 730d 73bf a86a 403f a1cc c03e
00000210: 76e4 1dbf 78a2 9fbe 3336 c23d d762 cf3e
00000220: 6b79 52bf 7d6e f0be 11d2 f43d 6d36 f1be
00000230: 038d d83e 3748 0b3f e991 81bf b43f 333d
00000240: 2895 c8bd 5ae0 2b3d 5ac4 85bc 463a 82be
00000250: 0914 bebd 500c 1d3e f80b c33e 2ba3 16bf
00000260: 51db 43be 3cbe af3e 107b ac3e 03f6 8bbe
00000270: 8203 2f3d 8e27 f03e 7fc3 06bf 8cf1 70bf
00000280: 20a1 8b3e 8e62 3e3f 973c debd 493b 543e
00000290: ad08 633e 8b53 2d40 d481 3abe 8596 47be
000002a0: aff3 d13f c2a2 8bbd 3b91 bbbe fac5 b43e
000002b0: d7a5 163d c406 613e f4ae e83d 9ddb 273f
000002c0: 2ffb 05bf 7fb4 dfbe 9e2e 88bf 0bbc 3fbd
000002d0: b4af c5bd 764d 0bbe f081 773e d299 b03d
000002e0: 911b 1c3e 6351 05bd d83e a93d 7a63 21bd
000002f0: 89e3 2dbe cf7d 6dbf f582 393f bbf7 00bd
00000300: c5f7 b43e bc3c 623f b17d 3a3f e557 17c0
00000310: 1b1b 6fbf 03c1 8ebf fa3a cd3e 55b9 fd3e
00000320: e1d5 c43c 2259 703e f31d c4bd a85f fdbd
00000330: 625a 3f3d 1d48 34be e243 77bf 034f c23e
00000340: c218 4fbf 33da 15bf a006 2c3f 354d 103e
00000350: b58c 893d aed3 fdbe e68b 983e 3a3b d83d
00000360: be5b 18be 23e8 623e 0030 debc 21e7 07bd
00000370: 9566 3d3d 9d24 043e 1c0f 5a3e 0edf 10be
00000380: 4dbd 4e3e 19ca 7a3e c822 a23e 4538 533e
00000390: dc7e a73e 8be4 1fbd 7e3d 0e3f fc26 9bbe
000003a0: d742 523f 14d6 153f fac7 0abf 60c5 233e
000003b0: bc74 2a3e 49c1 1bbf 7a6c 2e40 7d3f 4e3e
000003c0: 79fe 4cbd a6a6 0cbf 38a3 c73e 9d2b 85bd
000003d0: 6e3f 923e 0029 1c3e c09c 97bf 893a 91bf
000003e0: d6f3 1dbf b217 d23e 8d28 843d db70 303f
000003f0: b8fe 2b3e db8d 2ebf d862 d4be 2b38 a6be

fullconnect.0.bias f4 [6]
0.12592149 0.06971583 0.22259048 -0.37768736 0.06297209 -0.041439876
00000000: 90f1 003e 2cc7 8e3d c2ee 633e 3d60 c1be
00000010: 83f7 803d dcbc 29bd
